ncf_model.pt (torch, 21293 bytes, 5 tensors)

user_embed.weight f4 [5, 32]
0	0xbed3c0a0	-0.413579
1	0x3f88410f	1.0644854
2	0x40109b55	2.2594807
3	0x3f9f9f86	1.2470558
4	0xbf6b3a1c	-0.9188554
5	0xbf8dcd41	-1.1078264
6	0xbf5f73c4	-0.8728602
7	0xbe93f6af	-0.28899142
8	0x3f6b3a8b	0.91886204
9	0xbf58a616	-0.8462843
10	0x3f97b681	1.1852571
11	0x3f576160	0.8413296
12	0x4028cf28	2.6376438
13	0x3e42f13f	0.1903734
14	0x3f99529a	1.1978333
15	0xbf8f7e2a	-1.1210377
16	0xbf8f644b	-1.1202482
17	0x3f54e5bf	0.83163065
18	0x3f6d810c	0.92775035
19	0xbee62c6e	-0.44955772
20	0xbe4f3882	-0.202364
21	0x3f8eca43	1.1155475
22	0xbfcce8b8	-1.600852
23	0xbf15be01	-0.5849305
24	0x3ef11dee	0.47093147
25	0xbec0837b	-0.37600312
26	0x3e307ebc	0.17235845
27	0xbf86eef5	-1.0541674
28	0xbf26084e	-0.6485642
29	0x3dde9bfa	0.10869594
30	0x3fe8fc95	1.8202082
31	0x3f0ec7ef	0.55773824
32	0x3f4d0bc9	0.8009611
33	0xbe094a26	-0.13407192
34	0xbf78b4fb	-0.97151154
35	0xbef7925e	-0.48353857
36	0xbf5f790d	-0.87294084
37	0x3f8eefe0	1.1166954
38	0x3fe47b57	1.785014
39	0xbf2eb004	-0.6823733
40	0x3e082b35	0.13297732
41	0x3fc3a992	1.5286124
42	0x3dea2497	0.1143276
43	0xbf9ccb42	-1.2249529
44	0xbfa9dce9	-1.3270541
45	0x3b785220	0.0037890747
46	0xbf3c77b5	-0.7362016
47	0x3f21ba78	0.63175154
48	0xbf079698	-0.5296416
49	0xbf8c6811	-1.0969259
50	0x3f251f25	0.6450065
51	0x3f9aa4cd	1.2081543
52	0x3f1ee767	0.6207184
53	0x3ed36ac0	0.4129238
54	0xbfa6702d	-1.3002983
55	0x3fd5d7d1	1.6706487
56	0xbea0704b	-0.31335673
57	0x3e426c08	0.18986523
58	0x3fd90825	1.695561
59	0x3d134432	0.035953708
60	0x3f5ae964	0.85512376
61	0x3ecd7da1	0.4013491
62	0xbf10836d	-0.5645054
63	0x3d848fd9	0.06472749
64	0x40090740	2.1410675
65	0xbf9ea670	-1.2394543
66	0xbfbf2a57	-1.4934796
67	0xbf92d00a	-1.1469738
68	0x3f39d5f1	0.72592074
69	0x3f0ce5f6	0.5503839
70	0xbf68cb23	-0.9093496
71	0x3edc9d27	0.43088648
72	0x3eb6d7f3	0.3571163
73	0x3e174817	0.14773594
74	0xbdf9e16d	-0.122012
75	0x3f8dee21	1.1088296
76	0x3ed1318f	0.40858123
77	0xbe399761	-0.18124153
78	0xbeb6af2d	-0.35680524
79	0xbfe17dd6	-1.7616527
80	0x3e8df837	0.27728435
81	0x3ea2acc3	0.31772432
82	0x3f8af888	1.0857096
83	0x3f680f84	0.90648675
84	0xbf29a338	-0.6626468
85	0x3f1985c1	0.5996972
86	0xbf75fe26	-0.96090925
87	0x3d1f908e	0.038956217
88	0xbdd31289	-0.1030627
89	0xbe7027f5	-0.23452742
90	0x3ff031e5	1.8765227
91	0x3fd154c7	1.6353997
92	0xbc94c7c1	-0.018161656
93	0x3f7af054	0.9802296
94	0x3f4ed043	0.8078653
95	0x3f446770	0.76720333
96	0x3e111951	0.14169814
97	0xbf12f22a	-0.57400763
98	0x3e0d1176	0.13776192
99	0xbd8e60b2	-0.06952037
100	0x3fa9d39e	1.3267705
101	0xbfbacac7	-1.4593133
102	0xbed388a2	-0.4131518
103	0x3e97abb0	0.29623175
104	0x3fdc6601	1.7218629
105	0x3f570f04	0.8400729
106	0xbf310c53	-0.6915943
107	0x3f914b8c	1.135118
108	0xbfa2ce96	-1.2719295
109	0x3f4040a2	0.7509862
110	0xbf67a651	-0.90488154
111	0xbf9c6299	-1.221759
112	0x3cb009ed	0.021489108
113	0x40395fdb	2.8964756
114	0x3fba6df9	1.4564811
115	0xbd8b1ef1	-0.06793011
116	0xbf2ada3a	-0.6673924
117	0x3f2a0a8f	0.6642236
118	0x3dc160db	0.09442302
119	0x3f521fb2	0.82079613
120	0x3e5d31e6	0.21601066
121	0xbfa04ca2	-1.2523386
122	0xbee6f51d	-0.45108882
123	0xbe90cf59	-0.28283194
124	0x3f83a249	1.02839
125	0xbfee649c	-1.8624454
126	0x3fdba277	1.7158955
127	0x3f85c2a2	1.0450022
128	0x3fb7ea2b	1.4368337
129	0xbf92d893	-1.1472343
130	0x3dce6813	0.10078444
131	0xbfc1cd0d	-1.5140702
132	0xbf0958de	-0.53651226
133	0x3ef35aaa	0.4753011
134	0x3e3dca56	0.18534216
135	0xbe891386	-0.26772708
136	0xbf4ac1fe	-0.7920226
137	0x3f2ae5c5	0.6675685
138	0x3fde173d	1.7350842
139	0xbfa4ee1a	-1.2885163
140	0xbf8ef4c7	-1.116845
141	0x3fa36315	1.2764612
142	0xbed615d1	-0.4181352
143	0x3f1d224c	0.6138046
144	0x403a4128	2.9102268
145	0x3ebb58d0	0.36591196
146	0x3e222354	0.15833789
147	0xbed8d536	-0.42350167
148	0x3f250cee	0.64472854
149	0x3ddc9c63	0.10772016
150	0x3fdffc5f	1.7498893
151	0xbf884731	-1.0646726
152	0x3e6d7f2b	0.23193042
153	0x3ec47df0	0.38377333
154	0x3fa55ef1	1.2919599
155	0xbfaeb781	-1.3649751
156	0x3fbfd045	1.4985434
157	0xbf231e25	-0.6371787
158	0xbf34a0b6	-0.70557725
159	0xbf5ad2ba	-0.85477793

item_embed.weight f4 [5, 32]
0	0xbf77b923	-0.9676687
1	0xbf342c51	-0.7038012
2	0x3ca4c329	0.02011259
3	0xbeade103	-0.33960733
4	0xbe1ac5dd	-0.15114541
5	0x3ea68185	0.3252069
6	0x3dc62299	0.09674568
7	0x3fd39c6b	1.653211
8	0x3efcf259	0.49403647
9	0xbf0b7e27	-0.5448937
10	0x3e5b6dd0	0.21428609
11	0xbf6bac1e	-0.92059505
12	0xbe4b5364	-0.1985603
13	0x3e61ec47	0.22062789
14	0x3e035831	0.12826611
15	0x3dfbfc1e	0.12303947
16	0xbedc2568	-0.4299729
17	0x3f1becb6	0.6090807
18	0xc03d417e	-2.9571223
19	0x3ed9957c	0.4249686
20	0x3fc3e8d6	1.5305431
21	0x3f247597	0.6424193
22	0x3f0dc20a	0.55374205
23	0xbf91e1ed	-1.1397072
24	0x3f6b7b6f	0.9198522
25	0x3e884c91	0.26620916
26	0x3f29ab1a	0.66276705
27	0xbfa3dabd	-1.2801129
28	0x3f9eefb7	1.2416905
29	0x3ef9afe9	0.4876702
30	0x3f32a1bf	0.69778055
31	0xbd932e0b	-0.071865164
32	0x3fde2e0e	1.7357805
33	0x3e9d7458	0.30752826
34	0xbf8ed251	-1.1157933
35	0xbf80a45b	-1.0050157
36	0x3f010183	0.5039293
37	0xbe3eba86	-0.1862584
38	0x3cfe020d	0.031006837
39	0xbe2e2962	-0.17007974
40	0x3fb9f6c2	1.452843
41	0x3e7ad210	0.24494195
42	0x3e2c1dab	0.16808192
43	0x3f87670a	1.057832
44	0x3fe9882c	1.8244681
45	0xbf40c0f3	-0.7529442
46	0xbe4d25cf	-0.20033954
47	0xbef5d5ec	-0.48014772
48	0xbf39427b	-0.72367066
49	0x3f28120f	0.65652555
50	0xbedd15af	-0.43180606
51	0xbf43fabe	-0.7655448
52	0x3ff490a1	1.9106637
53	0xc017777b	-2.3666675
54	0x3e57f1c2	0.21088317
55	0x3f59d9d1	0.85097986
56	0x3e17a89b	0.14810412
57	0xbd918972	-0.07106294
58	0x3fb00ca6	1.375386
59	0x400e04b8	2.219038
60	0x3f2c18a3	0.6722509
61	0x3e3a3d33	0.18187408
62	0x3f8a8002	1.0820315
63	0x3f151ef8	0.5825038
64	0xbf41c197	-0.7568602
65	0x3fdf69e9	1.7454196
66	0x3e9a826e	0.30177635
67	0x3e18d87a	0.1492633
68	0xbe1ff3af	-0.15620302
69	0xbec8a38b	-0.39187273
70	0xbf8237bb	-1.0173258
71	0x3e1cf8f9	0.1532935
72	0x3fcddc3a	1.6082833
73	0xbeca6c00	-0.39535522
74	0xbf5a7efe	-0.85350025
75	0x3f740598	0.95321035
76	0xbfab29b1	-1.3372098
77	0x3f068160	0.5254116
78	0x3f6ffa7e	0.93741596
79	0xbf7c5b7e	-0.98577106
80	0xbf5d4a19	-0.8644119
81	0xbedc8087	-0.4306681
82	0xbf0a4306	-0.5400852
83	0xbf99d824	-1.2019086
84	0x3ebff4a1	0.37491325
85	0x3f612502	0.87947094
86	0x3f0fb175	0.5613015
87	0xbf82d0a3	-1.0219921
88	0x3ef4ec47	0.47836515
89	0x3efee4bc	0.49783885
90	0x3f14b15b	0.5808312
91	0x3f0fe3f6	0.56207216
92	0xbe87ec25	-0.2654735
93	0x3f258684	0.6465838
94	0x3f722aa3	0.9459631
95	0x3ed5f409	0.41787747
96	0x3f8de795	1.1086298
97	0xbca0c04f	-0.01962295
98	0xbe73d91f	-0.23813294
99	0x3e9f1e6c	0.31077898
100	0xbf88c153	-1.0683998
101	0x3fabd243	1.3423542
102	0x3ef124cb	0.47098383
103	0x3f31223b	0.69192857
104	0xbd83673a	-0.06416173
105	0xbf27571d	-0.653673
106	0xbf3a678b	-0.72814244
107	0xbeebb52a	-0.46036655
108	0x3fba3448	1.4547205
109	0xbe43f80d	-0.19137593
110	0xbf24f09c	-0.6442964
111	0x3f4ca60b	0.7994086
112	0xbedc3a64	-0.430133
113	0x404b9ffa	3.1816392
114	0x3fe9660b	1.8234266
115	0x3e9757a1	0.29559043
116	0xbef65335	-0.48110357
117	0xbee88b62	-0.4541884
118	0xbf6f52d9	-0.9348579
119	0xbaa6f63a	-0.0012738176
120	0x3d0d0f82	0.034438618
121	0xc01f2e2b	-2.4871929
122	0x3fa0ff4b	1.2577909
123	0xbdc48c8a	-0.09597118
124	0xc061950a	-3.5247216
125	0x3fe6c9af	1.8030299
126	0xbe2243a1	-0.15846111
127	0xbccdaf3a	-0.025107969
128	0xc03ce7fb	-2.951659
129	0xbef39da9	-0.47581223
130	0x3fc2105a	1.516124
131	0xbfee006e	-1.8593881
132	0x3eda2617	0.42607185
133	0xbf89f2cf	-1.0777224
134	0x3f8b72b3	1.0894378
135	0x3f821275	1.0161883
136	0xbe841814	-0.2579962
137	0x3ebb4260	0.36574078
138	0xbfd44e81	-1.6586457
139	0xbecfd466	-0.40591735
140	0x3e8a8b1e	0.27059263
141	0xbf48fe9d	-0.7851351
142	0x3edcc002	0.4311524
143	0xbfbd1a50	-1.4773655
144	0x3dafa7df	0.08576941
145	0x3f221777	0.63317055
146	0x3f9676e1	1.1755029
147	0x3db96249	0.090519495
148	0x3f718ddc	0.94357085
149	0x3ecd6ddd	0.40122882
150	0x3f93d726	1.1550033
151	0xbe952ff3	-0.29138145
152	0xc010ec19	-2.2644103
153	0x3ebf8d1f	0.37412354
154	0xbea54fed	-0.3228754
155	0x3fb4ee51	1.4135228
156	0xbea832cb	-0.32851252
157	0x3ebc051a	0.36722642
158	0x3f77a2f1	0.96733004
159	0x3f4a029b	0.78910226

fc.0.weight f4 [64, 64]
0	0x3ca60a99	0.020268725
1	0x3dc7dcba	0.09758897
2	0xbcc8ed77	-0.024527295
3	0x3d120b3a	0.035655238
4	0x3bd10a35	0.0063793906
5	0x3da9fde0	0.08300376
6	0xbdefaf6b	-0.1170338
7	0xbd35b0d2	-0.044358082
8	0xbdb27ff3	-0.087158106
9	0x3dd28a94	0.10280338
10	0xbd2284c4	-0.039677396
11	0x3dd20e72	0.102566615
12	0xbd186a76	-0.037210904
13	0xbe02832f	-0.12745355
14	0xbcf56814	-0.029956855
15	0xbd5cfaa5	-0.05394997
16	0xbcf62dfb	-0.030051222
17	0x3dac8c24	0.08425167
18	0x3c875f3f	0.016524909
19	0xbda8b910	-0.08238423
20	0x3c9c51a5	0.0190819
21	0xbde51e0d	-0.11187372
22	0xbdf58bc1	-0.119895466
23	0x3c05cd4c	0.008166622
24	0xbdfaf371	-0.12253464
25	0x3d24615d	0.040131915
26	0x3d9fc0f0	0.07800472
27	0xbdcffef5	-0.10156051
28	0x3da82a7a	0.08211227
29	0xbcae9a82	-0.02131391
30	0x3dd43c70	0.1036309
31	0xbde0c164	-0.10974386
32	0xbd8123f8	-0.063056886
33	0x3dcd647d	0.10028932
34	0xba43b554	-0.00074656797
35	0xbda24330	-0.07922971
36	0x3a1521d5	0.00056889403
37	0xbb4bfafa	-0.0031124935
38	0xbb545894	-0.003240143
39	0xbda37401	-0.0798111
40	0x3d31a5e5	0.0433711
41	0x3b73fcd7	0.0037229562
42	0x3d8b9ad6	0.06816642
43	0xbdb91f86	-0.09039216
44	0xbdfc2031	-0.123108275
45	0xbdb09e61	-0.086239584
46	0x3d18ae39	0.037275527
47	0xbdcfe911	-0.10151876
48	0x3abe4e0c	0.0014519109
49	0xbdb67d67	-0.08910637
50	0xbd05575a	-0.032554008
51	0x3c70610e	0.014671577
52	0xbe0132d0	-0.1261704
53	0xbd2b9cf7	-0.04189774
54	0x3d91f4e4	0.07126787
55	0x3c5b1b70	0.013373241
56	0x3b32dcd0	0.002729226
57	0xbdb4cfac	-0.08828673
58	0xbdd53d09	-0.10412032
59	0x3dd0d1f4	0.101962954
60	0x3d5693fb	0.05238722
61	0xbd6e07c8	-0.05811289
62	0xbc1f2fdc	-0.009716
63	0xbdf2c227	-0.11853438
64	0xbde986aa	-0.11402638
65	0x3dbf84a5	0.09351472
66	0xbdce909f	-0.10086178
67	0x3db3a370	0.087714076
68	0xbc9a3ff9	-0.018829333
69	0x3d362d8c	0.04447703
70	0xbd45a1c8	-0.04824999
71	0xbc93a58d	-0.018023277
72	0x3d81bcea	0.063348606
73	0xbd2b522a	-0.041826405
74	0x3de46f84	0.111540824
75	0xbba544b0	-0.0050435886
76	0xbd9c963f	-0.07645845
77	0xbdd5c113	-0.104372166
78	0xbcf5de1e	-0.03001314
79	0x3d411a18	0.047144026
80	0x3d5af4d8	0.053456157
81	0xbcd91a7a	-0.026501883
82	0x3ddde478	0.108345926
83	0x3df9dc4d	0.12200222
84	0x3d2c76dc	0.04210554
85	0xbb79a2ed	-0.0038091496
86	0xbd1e89c5	-0.038705606
87	0x3dd35ae3	0.1032007
88	0xbd7579ff	-0.059930798
89	0x3dace8d5	0.08442847
90	0xbcded4a8	-0.027201012
91	0xbca9bb96	-0.02071933
92	0x3c376bee	0.011195166
93	0xba1c8996	-0.00059714296
94	0xbdf62f4f	-0.12020742
95	0xbdc266c2	-0.09492256
96	0xbcd40ea3	-0.025885886
97	0x3d941201	0.072299965
98	0x3dd474bb	0.10373827
99	0x3ce51194	0.027962483
100	0x3d8d62f0	0.069036365
101	0x3ce8fb2e	0.028440084
102	0xbb97c2e4	-0.004631387
103	0xbd9e273a	-0.077223256
104	0xbd9cd706	-0.076582
105	0xbd4f529d	-0.050615896
106	0xbd9258a9	-0.07145817
107	0xbc7da70b	-0.015481721
108	0xbd465fba	-0.048431136
109	0x3dc76ffa	0.09738155
110	0xbdaca9f3	-0.08430853
111	0xbd14f129	-0.0363628
112	0xbdc33724	-0.095320016
113	0x3da10cf7	0.07863801
114	0x3ce5a7fa	0.028034199
115	0xbc980fdc	-0.01856225
116	0x3d271c6a	0.040798582
117	0x3d1f5019	0.038894746
118	0x3c712d6c	0.014720302
119	0x3dacbfad	0.08434997
120	0xbd938500	-0.07203102
121	0x3d82bc36	0.06383555
122	0x3cffdbc3	0.03123272
123	0x3d7dd395	0.06196936
124	0xbcc9d672	-0.024638388
125	0x3d52a1a9	0.051423702
126	0x3ccd0000	0.025024414
127	0xbd8aa246	-0.067692325
128	0x3df8964d	0.121380426
129	0xbd431abd	-0.04763292
130	0xbd8d0516	-0.06885736
131	0x3dabbdba	0.08385797
132	0x3d30acbc	0.043133482
133	0x3c505589	0.012715706
134	0xbdb09258	-0.08621663
135	0xbdd547a0	-0.10414052
136	0xbdc8e17a	-0.09808631
137	0xbd648598	-0.055791467
138	0x3df946b0	0.12171686
139	0x3d8c5aba	0.06853242
140	0xbd54e869	-0.051979456
141	0x3d6d3586	0.057912372
142	0x3d8d4deb	0.06899627
143	0xbda7bd3e	-0.08190392
144	0x3df61a1a	0.12016697
145	0xbdd638c1	-0.10460044
146	0x3dc35b6a	0.0953892
147	0xbdcf28ce	-0.10115205
148	0xbb7b47c3	-0.0038342334
149	0x3d1bae56	0.038008057
150	0x3dd3ec2b	0.1034778
151	0x3da8284d	0.08210812
152	0xbd4493c0	-0.047992468
153	0xbdceaa7f	-0.10091113
154	0x3ca78271	0.020447941
155	0xbe00b723	-0.12569861
156	0xbd6c8f2c	-0.057753727
157	0x3de00381	0.10938168
158	0x3ddf113d	0.1089196
159	0x3d5f53d4	0.054523304
160	0xbdb528f3	-0.08845701
161	0xbd92f79f	-0.07176136
162	0x3dd01fae	0.101622924
163	0x3d811103	0.06302073
164	0xbbd496f9	-0.006487724
165	0x3bfab9fd	0.007651566
166	0xba815e69	-0.0009870055
167	0x3d23d916	0.04000195
168	0x3d80b466	0.06284408
169	0x3dd7af37	0.105314665
170	0x3d1919c4	0.037378088
171	0xbdb807fe	-0.089858994
172	0x3dd538d3	0.10411229
173	0x3dd60984	0.10451034
174	0xbde63025	-0.112396516
175	0x3d95c392	0.07312693
176	0xbc61e7c0	-0.013788164
177	0x3d06c2a9	0.032900486
178	0xbcff11d5	-0.031136433
179	0x3dcc670f	0.09980594
180	0xbd53d4a4	-0.05171646
181	0xbddc8e13	-0.10769286
182	0x3c776f3e	0.015102206
183	0xbdccbcad	-0.099969245
184	0xbbd337a9	-0.006445844
185	0x3d42891d	0.047494043
186	0x3e00db55	0.12583669
187	0x3d002c6c	0.031292364
188	0x3c38b3da	0.011273349
189	0x3ddb1b96	0.10698621
190	0x3c1d0898	0.009584568
191	0x3d090c2f	0.033458885
192	0xbd4a1ecd	-0.04934578
193	0xbde19497	-0.110146694
194	0xbda18839	-0.078873105
195	0x3c998b40	0.018743157
196	0xbdaed0c3	-0.08535912
197	0x3c569752	0.013097601
198	0x3d37f3ef	0.044910368
199	0xbca4f5d4	-0.020136751
200	0x3ded1e1e	0.1157801
201	0xbc9423a5	-0.018083403
202	0xbd9e3f08	-0.07726866
203	0x3d906295	0.07050053
204	0xbddf396a	-0.10899623
205	0xbdec220c	-0.115299314
206	0x3daf14de	0.08548902
207	0x3dad983f	0.08476304
208	0xbc90f8f7	-0.01769684
209	0x3caec503	0.021334177
210	0x3bef1ba9	0.0072969985
211	0xbd5a2393	-0.053256582
212	0x397b76f0	0.00023981533
213	0x3da1de73	0.07903757
214	0x3da6c24a	0.081425264
215	0x3d82b91b	0.06382962
216	0xbcaf9c4d	-0.021436835
217	0xbdb19d03	-0.08672526
218	0x3dc751ab	0.09732374
219	0xbca00ee2	-0.019538347
220	0xbbd65ffa	-0.006542203
221	0xb87567f0	-5.850935e-05
222	0x3ba95ccb	0.0051685325
223	0x3cb0250a	0.021502037
224	0xbde50808	-0.111831725
225	0x3cd804af	0.02636942
226	0x3dae2395	0.085028805
227	0xbd9291ba	-0.071567014
228	0x3d6d7b00	0.05797863
229	0x3bd420e9	0.0064736498
230	0xbe00d6d3	-0.12581949
231	0x3dca16ae	0.09867607
232	0xbcdff5d7	-0.027338905
233	0x3de0dec0	0.10979986
234	0x3c1dfcfa	0.009642834
235	0xbde3054c	-0.11084995
236	0x3d097da5	0.03356709
237	0xbb87418e	-0.004127688
238	0x3d560ae2	0.052256472
239	0xbd71d98b	-0.059045356
240	0x3d98d293	0.07462039
241	0x3d7f4953	0.062325787
242	0xbb60b1ea	-0.0034285733
243	0xbcee2af8	-0.029073223
244	0xbcb7cd67	-0.02243681
245	0x3d6529bd	0.055948008
246	0xbe023f4c	-0.12719458
247	0x3ddc420f	0.10754787
248	0x3cae5ce7	0.021284534
249	0x3baef744	0.005339535
250	0xbc7affdc	-0.015319791
251	0xbd8d252c	-0.068918556
252	0x3db8ba30	0.090198874
253	0xbdd24855	-0.102677025
254	0xbdc745dd	-0.09730122
255	0x3dec31e8	0.11532956

fc.0.bias f4 [64]
0	0x3dd9c602	0.1063347
1	0xbcd5b993	-0.026089465
2	0x3dd92ec4	0.10604623
3	0x3dcfa2a8	0.10138446
4	0x3b9052a0	0.004404381
5	0x3db3d1d1	0.08780254
6	0xbdd35d04	-0.10320476
7	0x3c5653aa	0.0130814705
8	0xbd1073ef	-0.035266813
9	0xbd9a4abe	-0.07533787
10	0x3d9b7783	0.075911544
11	0x3d9aadb9	0.07552666
12	0xbd9c2604	-0.076244384
13	0xbdb52838	-0.08845562
14	0x3c897d3a	0.016783345
15	0xbdd3702a	-0.10324128
16	0x3db8694c	0.09004459
17	0x3d754946	0.059884332
18	0x3d780497	0.060551252
19	0xbd335b41	-0.0437882
20	0x3db1b73d	0.08677528
21	0x3d4c4eb8	0.04987976
22	0xbd448a1d	-0.047983278
23	0xbd25abb7	-0.040446963
24	0x3dd751ce	0.1051365
25	0xbd372512	-0.044713087
26	0x3d4bb065	0.04972877
27	0xbd647f8c	-0.0557857
28	0xbd92c286	-0.07166009
29	0x3c93cecc	0.018042944
30	0x3dd30c5d	0.103050925
31	0xbdcb78f2	-0.09935178
32	0x3d45741e	0.04820644
33	0xbd9f5d18	-0.07781428
34	0xbd68f864	-0.05687751
35	0xbd9103c6	-0.07080798
36	0x3daefb4a	0.08544023
37	0xbdecb2b8	-0.115575254
38	0x3d73d6fb	0.059531193
39	0xbcbb1926	-0.02283914
40	0xbd2c654a	-0.042088784
41	0x3de38cb4	0.11110821
42	0x3da81e87	0.08208948
43	0x3db7c9f4	0.089740664
44	0xbd84718d	-0.064669706
45	0xbcb5d7e4	-0.022197671
46	0xbdfbbbca	-0.12291677
47	0x3ddaaa62	0.10677029
48	0xbd597d1f	-0.05309784
49	0xbca76d77	-0.02043794
50	0x3cfac175	0.030609826
51	0xbd999c8d	-0.07500563
52	0xbc6c0e87	-0.01440776
53	0xbcd5d991	-0.02610472
54	0x3dac4d20	0.08413148
55	0xbd45b6e4	-0.04827012
56	0xbd5eb7b8	-0.054374427
57	0xbdefaa33	-0.11702385
58	0x3d4433be	0.047900908
59	0x3cf41418	0.029794738
60	0xbde2fa81	-0.11082936
61	0xbdd22456	-0.10260837
62	0x3d9b7d47	0.07592254
63	0x3d28863a	0.041143633

fc.2.weight f4 [1, 64]
0	0xbd916f2e	-0.07101284
1	0x3cc92912	0.024555717
2	0x3d8a9a2c	0.06767687
3	0xbd4ae4c4	-0.049534574
4	0xbaccd3e2	-0.0015627111
5	0xbc4b180a	-0.012395868
6	0x3cdbad24	0.026815958
7	0xbc088d7a	-0.008334512
8	0xbd092ede	-0.03349196
9	0xbd921eee	-0.071348056
10	0xbdae5975	-0.08513156
11	0xbd92d480	-0.071694374
12	0xbd840c0c	-0.0644761
13	0x3d80c2d3	0.0628716
14	0x3d5ba283	0.05362178
15	0x3cd0b357	0.02547614
16	0x3dac0cc8	0.08400875
17	0x3c5e24e3	0.013558599
18	0xbd37649a	-0.044773676
19	0x3d835cb7	0.06414168
20	0xbdd91920	-0.10600495
21	0xbdd41f7d	-0.103575684
22	0xbd0f310d	-0.034958888
23	0xbc9d89a1	-0.019230666
24	0x3daf20b6	0.08551161
25	0x3d5aa2db	0.053377967
26	0x3dd8d4b5	0.10587446
27	0x3d219aa1	0.039454106
28	0xbcdda948	-0.027058259
29	0xbdf060ba	-0.11737199
30	0xbd81a26c	-0.06329808
31	0x3d9ae882	0.075638786
32	0x3d0650ff	0.032792088
33	0xbdc88f81	-0.09792996
34	0x3d87a5f9	0.06623454
35	0xbda4165c	-0.08012077
36	0xbdbf12a3	-0.093297265
37	0x3bbd1c77	0.0057712155
38	0xbcb56753	-0.022143995
39	0x3d2a4b60	0.04157579
40	0xbc4652bc	-0.012104686
41	0x3dc960dd	0.09832928
42	0x3dc16e84	0.09444907
43	0x3d0baac4	0.0340984
44	0x3df87a89	0.12132747
45	0xbdbe45f8	-0.09290689
46	0xbd368379	-0.044558976
47	0xbdebaaeb	-0.115072094
48	0xbab84b9a	-0.0014060617
49	0x3de128c3	0.10994103
50	0xbcc69f56	-0.0242459
51	0xbdf057a7	-0.11735468
52	0x3d7fabfc	0.062419876
53	0x3db1cf30	0.08682096
54	0x3cee4657	0.029086275
55	0xbd879571	-0.066203006
56	0xbcaecea8	-0.021338776
57	0xbda666c9	-0.081250735
58	0x3dc77c6a	0.09740527
59	0xbd788d9e	-0.06068193
60	0xbc3d56f7	-0.011556379
61	0x3d381986	0.044946216
62	0x3de6a3f7	0.112617426
63	0xbd210308	-0.03930953
